users/mnist-canvas/mnist/model.pth (torch, 219103 bytes, 4 tensors)

conv.weight f4 [32, 1, 3, 3]
-0.4865211 0.5933889 0.13629036 -0.88486356 -0.16157112 0.518087 -0.3075999 -0.3987405
-0.08255352 0.4708163 0.02165017 0.39203662 0.1561459 0.7407402 0.15298936 -1.1320524
-0.43757957 -1.1975126 0.62889487 -0.68667424 -1.1117674 -1.0054804 -0.63208085 0.10371646
-0.36741638 0.3731185 0.8046882 -0.16907617 0.36399865 -0.3531998 0.3744673 0.44326767
-0.76128906 -0.1575676 0.5199562 -0.25805354 0.35304382 0.15481344 -0.60174745 -0.5460271
0.2332404 0.276466 -0.2943507 0.31320146 0.19964106 0.28863734 0.41519433 0.3232934
-0.51219726 0.23365036 0.38121328 -0.6153689 -0.43561274 -1.2262775 -1.0993243 -0.33842772
0.6776628 -1.1455275 0.23786071 0.60463107 -0.809441 -1.2339537 -0.23822702 -0.19683595
0.0047406005 -0.1268427 -0.6295302 -0.13526113 0.3115273 -0.6846286 -0.18983084 0.76928633
0.120742075 0.2149657 0.1281997 0.08558821 0.014301487 -0.38115978 -0.14279854 0.15080248
0.25973576 0.45220298 0.34044197 -0.0625362 0.44700718 -0.058799837 0.026751136 -0.18864521
-0.51226765 -0.637609 -0.56872886 0.44081202 0.17526461 -0.73108566 -0.08900153 0.6412445
-0.35098365 -0.19618441 0.3753001 -0.5358626 0.06678539 0.42751983 -0.6593915 0.5211676
0.0056847907 -0.34516358 0.65789324 0.056095693 0.35861993 0.4181511 0.059712946 -0.32378644
0.47033602 -0.040494226 -0.6918597 -0.19947526 0.32687548 0.45300138 0.56917965 -0.65864563
0.214359 -0.99744517 -1.3748314 -1.5036135 -0.3609714 0.8781714 0.4155481 0.55720407
0.17393066 -0.7666074 -0.71526486 -0.8095472 0.10686572 0.53265786 0.34110838 -0.61386526
0.44675702 0.50744617 0.33481008 0.37576082 -0.5528833 0.42843974 -0.03374678 -0.42829114
-0.50863326 -0.8213159 -0.7167602 0.56756204 0.5612054 -0.5801305 0.013729022 0.07636992
0.4579837 0.22303304 -0.51787657 0.21017575 0.53964186 -0.61250377 0.50771743 0.38287592
-0.7013067 -0.048069753 0.55559844 -0.12418673 -1.1268696 0.47549596 0.20026518 -0.7532583
0.4950607 -0.5842622 -0.87891114 -0.039776288 0.68490255 0.55730915 -0.6036925 0.054786924
-0.48854074 -1.3554239 -0.7907688 -1.6342349 0.4256307 0.2494029 -0.818033 -0.20826241
0.36842197 0.23136495 -0.74351513 0.09327708 0.54714346 0.25868213 0.42035437 0.1999897
0.39892545 0.2713844 -0.16843173 0.2146975 -0.30881062 -0.7445097 -1.211309 -0.3726332
-1.1918424 -0.49692494 0.07451247 -0.77957976 0.49405095 0.81481546 0.44104296 0.14195156
0.048962675 0.29617292 -0.01013841 0.0879393 0.16979454 0.4376594 -0.04712771 0.14777353
-0.37155592 -0.7122402 -0.59479374 0.4511827 0.67244756 0.40542006 -0.1875108 -0.010024437
0.15099777 -0.72783506 -0.8815162 -0.008243754 -0.5738273 -0.4762996 0.82358176 -1.11302
-0.3853309 0.6931345 0.33822864 -0.19334902 0.34988275 -0.15155223 0.38011265 -0.06873969
-0.14001074 0.47322357 -0.095410936 -0.13601494 0.029120773 -0.08486602 -0.30755827 -0.28235245
-0.32880592 0.057361603 0.053347796 0.031603664 0.23785163 0.21988173 0.08730659 -0.042296827
00000000: 4b19 f9be 56e8 173f b38f 0b3e 6b86 62bf
00000010: e672 25be 5aa1 043f bc7d 9dbe b727 ccbe
00000020: d211 a9bd d60e f13e b35b b13c 06b9 c83e
00000030: b6e4 1f3e 26a1 3d3f 3ea9 1c3e 18e7 90bf
00000040: 6e0a e0be 1848 99bf 41ff 203f e2c9 2fbf
00000050: 654e 8ebf 95b3 80bf 0dd0 21bf 4c69 d43d
00000060: 001e bcbe 6309 bf3e 0c00 4e3f 4e22 2dbe
00000070: 085e ba3e 9bd6 b4be 2eba bf3e fbf3 e23e
00000080: d7e3 42bf 6759 21be d91b 053f 981f 84be
00000090: 29c2 b43e 6a87 1e3e 1f0c 1abf 6fc8 0bbf
000000a0: 92d6 6e3e f48c 8d3e 23b5 96be f15b a03e
000000b0: b56e 4c3e 46c8 933e 5a94 d43e b686 a53e
000000c0: 5c1f 03bf 0a42 6f3e 632e c33e d188 1dbf
000000d0: a208 dfbe a9f6 9cbf a9b6 8cbf 6646 adbe
000000e0: 4f7b 2d3f a5a0 92bf c291 733e 1ac9 1a3f
000000f0: 8637 4fbf 32f2 9dbf c9f1 73be 5d8f 49be
00000100: 0a57 9b3b 0ee3 01be e428 21bf e581 0abe
00000110: 8280 9f3e d243 2fbf 0463 42be f3ef 443f
00000120: 9f47 f73d f81f 5c3e c846 033e df48 af3d
00000130: c950 6a3c 6027 c3be c839 12be f76b 1a3e
00000140: 16fc 843e 2687 e73e 694e ae3e fb12 80bd
00000150: 20de e43e 19d8 70bd 3325 db3c 362c 41be
00000160: f923 03bf 583a 23bf 3798 11bf 1db2 e13e
00000170: 9178 333e 6e28 3bbf 6f46 b6bd 9928 243f
00000180: 21b4 b3be 91e4 48be 5627 c03e 4b2e 09bf
00000190: c7c6 883d e1e3 da3e e2cd 28bf 3d6b 053f
000001a0: 7b47 ba3b 48b9 b0be b16b 283f 99c4 653d
000001b0: 089d b73e e717 d63e 9095 743d 56c7 a5be
000001c0: e2cf f03e 46dd 25bd b81d 31bf 3e43 4cbe
000001d0: 395c a73e ccef e73e c2b5 113f 009d 28bf
000001e0: ed80 5b3e 9158 7fbf 7afa afbf 6876 c0bf
000001f0: 3ed1 b8be d7cf 603f b8c2 d43e eda4 0e3f
00000200: e11a 323e 6240 44bf 991b 37bf 7c3e 4fbf
00000210: 6adc da3d 445c 083f c2a5 ae3e 4626 1dbf
00000220: 56bd e43e fee7 013f 3a6c ab3e b963 c03e
00000230: c389 0dbf 745c db3e 103a 0abd fa48 dbbe
00000240: ca35 02bf c241 52bf 997d 37bf bf4b 113f
00000250: 28ab 0f3f 6f83 14bf b1ef 603c d567 9c3d
00000260: d77c ea3e c662 643e 8f93 04bf 5038 573e
00000270: f825 0a3f 0ccd 1cbf c5f9 013f 5008 c43e
00000280: d688 33bf cae4 44bd b33b 0e3f 9d55 febd
00000290: 433d 90bf 3574 f33e 5112 4d3e 89d5 40bf
000002a0: 9978 fd3e 3592 15bf 5200 61bf 76ec 22bd
000002b0: c655 2f3f d0ab 0e3f 978b 1abf 4168 603d
000002c0: 0322 fabe 887e adbf d36f 4abf 9c2e d1bf
000002d0: 44ec d93e 7963 7f3e 9c6a 51bf be42 55be
000002e0: cea1 bc3e efea 6c3e 0257 3ebf 0e08 bf3d
000002f0: 9811 0c3f fc71 843e b038 d73e 1aca 4c3e
00000300: f53f cc3e e5f2 8a3e 5e79 2cbe a9d9 5b3e
00000310: 6d1c 9ebe 3098 3ebf 2c0c 9bbf c7c9 bebe
00000320: 4b8e 98bf f26c febe fe99 983d 8a92 47bf
00000330: 3ff4 fc3e bf97 503f 62d0 e13e c05b 113e
00000340: 168d 483d faa3 973e 931b 26bc 8519 b43d
00000350: 9fde 2d3e e514 e03e fc08 41bd f251 173e
00000360: 943c bebe 6055 36bf 6744 18bf 6b01 e73e
00000370: 8625 2c3f 3893 cf3e d502 40be 893d 24bc
00000380: 299f 1a3e 6653 3abf 0cab 61bf cf10 07bc
00000390: 59e6 12bf 8bdd f3be 41d6 523f 7077 8ebf
000003a0: 174a c5be 4371 313f 4e2c ad3e 49fd 45be
000003b0: d523 b33e 8230 1bbe 209e c23e 65c7 8cbd
000003c0: fa5e 0fbe 5c4a f23e cf66 c3bd 8047 0bbe
000003d0: b08e ee3c 3cce adbd 4778 9dbe 8090 90be
000003e0: 4059 a8be 00f4 6a3d 3883 5a3d d872 013d
000003f0: 618f 733e ad28 613e cccd b23d 703f 2dbd

conv.bias f4 [32]
0.04376116 -0.5026588 0.0631119 -0.15726064 0.13306679 -0.2099466 0.04356887 0.103106
0.0882199 -0.055465978 -0.19145167 -0.39420494 -0.27739027 0.06930736 -0.06919401 -0.53153706
0.067919925 0.10409342 -0.12741545 0.14389788 -0.35210565 -0.4016406 -0.2214291 -0.45738444
0.11084268 0.087512195 -0.31240544 -0.20968902 -0.25897306 -0.3720774 0.10537427 0.11022196
00000000: e73e 333d 3fae 00bf d040 813d ef08 21be
00000010: a942 083e 3efc 56be 4575 323d 3d29 d33d
00000020: a3ac b43d 4b30 63bd e80b 44be 3bd5 c9be
00000030: 1906 8ebe 04f1 8d3d 97b5 8dbd d012 08bf
00000040: 9a19 8b3d ee2e d53d 3279 02be f759 133e
00000050: 3147 b4be d6a3 cdbe 4fbe 62be 4b2e eabe
00000060: 7d01 e33d 9839 b33d 9bf3 9fbe b8b8 56be
00000070: 1e98 84be ee80 bebe 77ce d73d 0dbc e13d

fc.weight f4 [10, 5408]
0.035021864 -0.06311171 -0.07870645 -0.38760513 0.01340438 0.020112997 -0.38807672 -0.16421072
-0.27262017 -0.07862426 0.028665911 0.02605462 0.04237347 0.011225043 -0.04382432 -0.090710446
-0.076541066 -0.12361695 -0.107676856 -0.060757976 -0.24597389 -0.23904376 -0.051071897 -0.14193095
0.07443161 0.021979867 -0.12037068 -0.08770716 -0.21840161 -0.24245487 -0.25448874 -0.16089413
-0.20063633 -0.25037956 -0.20861055 -0.038400967 -0.4416129 -0.09035174 -0.014579934 0.05745185
-0.10926306 -0.21551298 -0.3011712 -0.20296147 -0.19486426 0.01769601 -0.122539684 -0.0018061945
-0.042015456 -0.05944836 -0.07694204 0.02722768 -0.028604437 -0.07912401 -0.18849584 -0.11280265
-0.15872355 -0.06841557 0.0317056 0.083470434 0.1000065 0.16660191 0.14903192 0.08205923
-0.119701214 -0.0479065 0.021300685 -0.03592903 -0.048170913 0.007980459 0.04091232 0.21975826
0.08897122 0.11911649 0.11754572 0.129531 0.20984808 -3.0040184e-05 0.014542668 -0.0073085595
0.025471851 0.017413134 0.02134547 -0.06303579 0.11241268 0.03144224 0.06523124 0.19912723
0.1872633 0.16474414 -0.061110064 -0.0052626505 0.06375512 0.03752898 0.09399894 -0.0219439
-0.051403113 0.08318698 0.072773054 0.06093962 0.090275794 0.11963414 -0.09556874 -0.1046992
-0.029827444 -0.014137044 -0.032923993 0.015204739 0.14483194 0.050991815 -0.046976898 0.17457886
0.086346224 0.083335884 -0.039301973 -0.05805826 -0.054839045 -0.13211593 0.0018415436 0.040891588
-0.0021401094 0.08038022 0.09036735 0.18985343 -0.017134761 0.089775085 -0.039907686 -0.10327715
-0.18349455 -0.089429125 -0.11727003 0.049087368 -0.013908179 -0.053468503 0.015354355 -0.05541443
-0.07010207 -0.14577201 -0.20226897 -0.23820457 -0.32802877 -0.26406267 0.09026863 -0.27134615
-0.14913756 -0.009178134 -0.008016775 -0.039982352 -0.017045999 -0.06084883 -0.047666695 -0.201971
-0.27168322 -0.24333736 -0.26139942 0.04563206 -0.12412612 -0.24423152 -0.26316687 -0.22837527
-0.22119649 -0.23576415 -0.11003366 -0.17803158 -0.21566994 -0.3486391 -0.16234434 -0.18659718
0.010537384 -0.00057032984 -0.050219335 -0.07774251 -0.14341648 0.016390532 0.18364829 0.13699625
0.12311259 0.008294499 -0.098096 -0.16530468 -0.122043744 -0.0066520195 0.030117175 0.028770328
-0.22319826 -0.05378188 0.15474096 0.021078616 -0.0050035436 0.026802339 0.07016971 -0.037170865
-0.25598645 0.08548613 0.11806602 -0.24623068 -0.12883964 -0.10927122 -0.17252527 -0.35216954
-0.089727126 -0.08008093 -0.105085246 -0.35945854 -0.08651511 -0.15252051 -0.17441572 -0.26585332
-0.08002109 -0.23646523 -0.14307766 -0.26128602 -0.084795475 -0.1508257 -0.044436466 -0.108838744
-0.11637609 -0.25783408 -0.13836943 -0.2263157 -0.15348905 -0.20987336 -0.42156506 -0.4846611
-0.29116783 -0.012790671 -0.10984827 -0.28417385 -0.15214233 0.011327569 -0.23067883 -0.38204405
-0.43455744 -0.22586247 -0.266339 -0.40249765 -0.5011861 -0.15626398 -0.07642041 -0.11906099
-0.080413096 -0.18615617 -0.0802332 -0.09284892 -0.45607516 -0.44738162 -0.16821569 -0.115253724
-0.24405761 -0.5378776 -0.40395367 -0.29827318 -0.38385856 -0.38279685 -0.35606366 -0.25906673
00000000: 1673 0f3d b640 81bd d930 a1bd 2e74 c6be
00000010: 0b9e 5b3c 03c4 a43c feb1 c6be db26 28be
00000020: df94 8bbe c205 a1bd c6d4 ea3c 8070 d53c
00000030: ce8f 2d3d 3ee9 373c 2181 33bd 66c6 b9bd
00000040: 90c1 9cbd e22a fdbd af85 dcbd 5bdd 78bd
00000050: 94e0 7bbe e3c7 74be c430 51bd 5956 11be
00000060: 9a6f 983d 1f0f b43c e784 f6bd d09f b3bd
00000070: aca4 5fbe 1746 78be 594c 82be 6ec1 24be
00000080: 9c73 4dbe c031 80be 019e 55be 554a 1dbd
00000090: 161b e2be 550a b9bd ade0 6ebc a252 6b3d
000000a0: 50c5 dfbd 6faf 5cbe 1d33 9abe 22d5 4fbe
000000b0: 7f8a 47be 39f7 903c 16f6 fabd d5bd ecba
000000c0: 6618 2cbd 2080 73bd ca93 9dbd 950c df3c
000000d0: da53 eabc c50b a2bd 0e05 41be 1305 e7bd
000000e0: 6d88 22be 761d 8cbd bbdd 013d 8cf2 aa3d
000000f0: 35d0 cc3d b199 2a3e d39b 183e ab0e a83d
00000100: e925 f5bd 9b39 44bd c67e ae3c 522a 13bd
00000110: dd4e 45bd 79c0 023c ad93 273d 4f08 613e
00000120: 8b36 b63d 59f3 f33d cfbb f03d c6a3 043e
00000130: 6ae2 563e cefe fbb7 5f44 6e3c a47c efbb
00000140: 58aa d03c fda5 8e3c b2dc ae3c e918 81bd
00000150: 9f38 e63d 94c9 003d f597 853d 02e8 4b3e
00000160: f3c1 3f3e b0b2 283e 8c4e 7abd 5072 acbb
00000170: 0b92 823d fdb7 193d 8482 c03d b2c3 b3bc
00000180: 128c 52bd ef5d aa3d 0a0a 953d d39b 793d
00000190: 84e2 b83d be02 f53d 8bb9 c3bd 896c d6bd
000001a0: af58 f4bc 0f9f 67bc 4fdb 06bd 4c1d 793c
000001b0: d34e 143e cbdc 503d d96a 40bd cdc4 323e
000001c0: 4ad6 b03d 01ac aa3d 1bfb 20bd 7fce 6dbd
000001d0: e89e 60bd 6649 07be f35f f13a f07d 273d
000001e0: 1441 0cbb 639e a43d 8412 b93d f068 423e
000001f0: 335e 8cbc 00dc b73d 3e76 23bd f882 d3bd
00000200: ffe5 3bbe 9e26 b7bd 452b f0bd d60f 493d
00000210: 21df 63bc ca01 5bbd d590 7b3c 3efa 62bd
00000220: ad91 8fbd 4245 15be 991f 4fbe e6eb 73be
00000230: 63f3 a7be 3933 87be c2de b83d e2ed 8abe
00000240: 84b7 18be e25f 16bc cb58 03bc 89c4 23bd
00000250: 0da4 8bbc 9f3c 79bd 273e 43bd 7cd1 4ebe
00000260: 101a 8bbe 6e2d 79be 25d6 85be afe8 3a3d
00000270: d635 febd d417 7abe cfbd 86be 35db 69be
00000280: 5581 62be 286c 71be 5459 e1bd e94d 36be
00000290: 95d8 5cbe d380 b2be 983d 26be 5513 3fbe
000002a0: fea4 2c3c 3082 15ba cab2 4dbd 7737 9fbd
000002b0: c5db 12be 7045 863c 4c0e 3c3e bf48 0c3e
000002c0: 7422 fc3d a6e5 073c 8ee6 c8bd a145 29be
000002d0: 12f2 f9bd 2ff9 d9bb 4bb8 f63c c0af eb3c
000002e0: 168e 64be 634a 5cbd 6a74 1e3e 10ad ac3c
000002f0: c4f4 a3bb 9490 db3c 23b5 8f3d 7a40 18bd
00000300: a810 83be 5a13 af3d 99cc f13d e523 7cbe
00000310: 8aee 03be 97c9 dfbd 77aa 30be 914f b4be
00000320: dbc2 b7bd 7801 a4bd ef36 d7bd f30a b8be
00000330: d62e b1bd 562e 1cbe 099a 32be ed1d 88be
00000340: 19e2 a3bd f123 72be f382 12be 48c7 85be
00000350: 40a9 adbd 0d72 1abe 0303 36bd d9e6 debd
00000360: 9656 eebd d402 84be b7b0 0dbe 4ebf 67be
00000370: 3c2c 1dbe 0be9 56be 60d7 d7be 8025 f8be
00000380: f313 95be f68f 51bc 21f8 e0bd 3c7f 91be
00000390: 33cb 1bbe 4597 393c 1237 6cbe 479b c3be
000003a0: 507e debe 7e48 67be 965d 88be 2c14 cebe
000003b0: bb4d 00bf aa03 20be 4e82 9cbd 40d6 f3bd
000003c0: 9faf a4bd b99f 3ebe 4e51 a4bd 9327 bebd
000003d0: af82 e9be 340f e5be bc40 2cbe 250a ecbd
000003e0: 3dea 79be 59b2 09bf 04d3 cebe 43b7 98be
000003f0: 1c89 c4be f3fd c3be fa4d b6be 65a4 84be

fc.bias f4 [10]
-0.001177664 0.39054686 0.008225118 -0.017523954 -0.018420357 0.072425574 -0.06990377 0.28894198
-0.39520136 -0.124229215
00000000: d95b 9aba c2f5 c73e a5c2 063c 658e 8fbc
00000010: 4ae6 96bc dc53 943d b529 8fbd 34f0 933e
00000020: d557 cabe e36b febd
